nohup: ignoring input
Loading files from: ../data/training_set/*/*.jpg
Image Shape: (256, 256, 3) | Generator Latent Dimension: 300 | Discriminator Latent Dimension: 200
Model: "model"
__________________________________________________________________________________________________
Layer (type)                    Output Shape         Param #     Connected to                     
==================================================================================================
input_2 (InputLayer)            [(None, 256, 256, 3) 0                                            
__________________________________________________________________________________________________
input_1 (InputLayer)            [(None, 256, 256, 3) 0                                            
__________________________________________________________________________________________________
conv2d_3 (Conv2D)               (None, 256, 256, 64) 9472        input_2[0][0]                    
__________________________________________________________________________________________________
conv2d (Conv2D)                 (None, 256, 256, 64) 9472        input_1[0][0]                    
__________________________________________________________________________________________________
batch_normalization_3 (BatchNor (None, 256, 256, 64) 256         conv2d_3[0][0]                   
__________________________________________________________________________________________________
batch_normalization (BatchNorma (None, 256, 256, 64) 256         conv2d[0][0]                     
__________________________________________________________________________________________________
leaky_re_lu_3 (LeakyReLU)       (None, 256, 256, 64) 0           batch_normalization_3[0][0]      
__________________________________________________________________________________________________
average_pooling2d (AveragePooli (None, 128, 128, 64) 0           batch_normalization[0][0]        
__________________________________________________________________________________________________
average_pooling2d_2 (AveragePoo (None, 128, 128, 64) 0           leaky_re_lu_3[0][0]              
__________________________________________________________________________________________________
conv2d_1 (Conv2D)               (None, 64, 64, 128)  73856       average_pooling2d[0][0]          
__________________________________________________________________________________________________
conv2d_4 (Conv2D)               (None, 64, 64, 128)  73856       average_pooling2d_2[0][0]        
__________________________________________________________________________________________________
batch_normalization_1 (BatchNor (None, 64, 64, 128)  512         conv2d_1[0][0]                   
__________________________________________________________________________________________________
batch_normalization_4 (BatchNor (None, 64, 64, 128)  512         conv2d_4[0][0]                   
__________________________________________________________________________________________________
leaky_re_lu_1 (LeakyReLU)       (None, 64, 64, 128)  0           batch_normalization_1[0][0]      
__________________________________________________________________________________________________
leaky_re_lu_4 (LeakyReLU)       (None, 64, 64, 128)  0           batch_normalization_4[0][0]      
__________________________________________________________________________________________________
average_pooling2d_1 (AveragePoo (None, 32, 32, 128)  0           leaky_re_lu_1[0][0]              
__________________________________________________________________________________________________
average_pooling2d_3 (AveragePoo (None, 32, 32, 128)  0           leaky_re_lu_4[0][0]              
__________________________________________________________________________________________________
conv2d_2 (Conv2D)               (None, 16, 16, 256)  295168      average_pooling2d_1[0][0]        
__________________________________________________________________________________________________
conv2d_5 (Conv2D)               (None, 16, 16, 256)  295168      average_pooling2d_3[0][0]        
__________________________________________________________________________________________________
batch_normalization_2 (BatchNor (None, 16, 16, 256)  1024        conv2d_2[0][0]                   
__________________________________________________________________________________________________
batch_normalization_5 (BatchNor (None, 16, 16, 256)  1024        conv2d_5[0][0]                   
__________________________________________________________________________________________________
leaky_re_lu_2 (LeakyReLU)       (None, 16, 16, 256)  0           batch_normalization_2[0][0]      
__________________________________________________________________________________________________
leaky_re_lu_5 (LeakyReLU)       (None, 16, 16, 256)  0           batch_normalization_5[0][0]      
__________________________________________________________________________________________________
flatten (Flatten)               (None, 65536)        0           leaky_re_lu_2[0][0]              
__________________________________________________________________________________________________
flatten_1 (Flatten)             (None, 65536)        0           leaky_re_lu_5[0][0]              
__________________________________________________________________________________________________
concatenate (Concatenate)       (None, 131072)       0           flatten[0][0]                    
                                                                 flatten_1[0][0]                  
__________________________________________________________________________________________________
dense (Dense)                   (None, 300)          39321900    concatenate[0][0]                
__________________________________________________________________________________________________
dense_1 (Dense)                 (None, 65536)        19726336    dense[0][0]                      
__________________________________________________________________________________________________
reshape (Reshape)               (None, 16, 16, 256)  0           dense_1[0][0]                    
__________________________________________________________________________________________________
lambda (Lambda)                 (None, 32, 32, 64)   0           reshape[0][0]                    
__________________________________________________________________________________________________
conv2d_transpose (Conv2DTranspo (None, 64, 64, 128)  73856       lambda[0][0]                     
__________________________________________________________________________________________________
batch_normalization_6 (BatchNor (None, 64, 64, 128)  512         conv2d_transpose[0][0]           
__________________________________________________________________________________________________
leaky_re_lu_6 (LeakyReLU)       (None, 64, 64, 128)  0           batch_normalization_6[0][0]      
__________________________________________________________________________________________________
concatenate_1 (Concatenate)     (None, 64, 64, 256)  0           leaky_re_lu_6[0][0]              
                                                                 leaky_re_lu_1[0][0]              
__________________________________________________________________________________________________
lambda_1 (Lambda)               (None, 128, 128, 64) 0           concatenate_1[0][0]              
__________________________________________________________________________________________________
conv2d_transpose_1 (Conv2DTrans (None, 256, 256, 64) 36928       lambda_1[0][0]                   
__________________________________________________________________________________________________
batch_normalization_7 (BatchNor (None, 256, 256, 64) 256         conv2d_transpose_1[0][0]         
__________________________________________________________________________________________________
leaky_re_lu_7 (LeakyReLU)       (None, 256, 256, 64) 0           batch_normalization_7[0][0]      
__________________________________________________________________________________________________
concatenate_2 (Concatenate)     (None, 256, 256, 128 0           leaky_re_lu_7[0][0]              
                                                                 batch_normalization[0][0]        
__________________________________________________________________________________________________
conv2d_6 (Conv2D)               (None, 256, 256, 3)  18819       concatenate_2[0][0]              
__________________________________________________________________________________________________
batch_normalization_8 (BatchNor (None, 256, 256, 3)  12          conv2d_6[0][0]                   
__________________________________________________________________________________________________
activation (Activation)         (None, 256, 256, 3)  0           batch_normalization_8[0][0]      
==================================================================================================
Total params: 59,939,195
Trainable params: 59,937,013
Non-trainable params: 2,182
__________________________________________________________________________________________________
None
Model: "model_1"
__________________________________________________________________________________________________
Layer (type)                    Output Shape         Param #     Connected to                     
==================================================================================================
input_3 (InputLayer)            [(None, 256, 256, 3) 0                                            
__________________________________________________________________________________________________
input_4 (InputLayer)            [(None, 256, 256, 3) 0                                            
__________________________________________________________________________________________________
conv2d_7 (Conv2D)               (None, 128, 128, 64) 4864        input_3[0][0]                    
__________________________________________________________________________________________________
conv2d_12 (Conv2D)              (None, 128, 128, 64) 4864        input_4[0][0]                    
__________________________________________________________________________________________________
leaky_re_lu_8 (LeakyReLU)       (None, 128, 128, 64) 0           conv2d_7[0][0]                   
__________________________________________________________________________________________________
leaky_re_lu_13 (LeakyReLU)      (None, 128, 128, 64) 0           conv2d_12[0][0]                  
__________________________________________________________________________________________________
conv2d_8 (Conv2D)               (None, 64, 64, 128)  204928      leaky_re_lu_8[0][0]              
__________________________________________________________________________________________________
conv2d_13 (Conv2D)              (None, 64, 64, 128)  204928      leaky_re_lu_13[0][0]             
__________________________________________________________________________________________________
batch_normalization_9 (BatchNor (None, 64, 64, 128)  512         conv2d_8[0][0]                   
__________________________________________________________________________________________________
batch_normalization_13 (BatchNo (None, 64, 64, 128)  512         conv2d_13[0][0]                  
__________________________________________________________________________________________________
leaky_re_lu_9 (LeakyReLU)       (None, 64, 64, 128)  0           batch_normalization_9[0][0]      
__________________________________________________________________________________________________
leaky_re_lu_14 (LeakyReLU)      (None, 64, 64, 128)  0           batch_normalization_13[0][0]     
__________________________________________________________________________________________________
conv2d_9 (Conv2D)               (None, 32, 32, 256)  819456      leaky_re_lu_9[0][0]              
__________________________________________________________________________________________________
conv2d_14 (Conv2D)              (None, 32, 32, 256)  819456      leaky_re_lu_14[0][0]             
__________________________________________________________________________________________________
batch_normalization_10 (BatchNo (None, 32, 32, 256)  1024        conv2d_9[0][0]                   
__________________________________________________________________________________________________
batch_normalization_14 (BatchNo (None, 32, 32, 256)  1024        conv2d_14[0][0]                  
__________________________________________________________________________________________________
leaky_re_lu_10 (LeakyReLU)      (None, 32, 32, 256)  0           batch_normalization_10[0][0]     
__________________________________________________________________________________________________
leaky_re_lu_15 (LeakyReLU)      (None, 32, 32, 256)  0           batch_normalization_14[0][0]     
__________________________________________________________________________________________________
conv2d_10 (Conv2D)              (None, 16, 16, 512)  3277312     leaky_re_lu_10[0][0]             
__________________________________________________________________________________________________
conv2d_15 (Conv2D)              (None, 16, 16, 512)  3277312     leaky_re_lu_15[0][0]             
__________________________________________________________________________________________________
batch_normalization_11 (BatchNo (None, 16, 16, 512)  2048        conv2d_10[0][0]                  
__________________________________________________________________________________________________
batch_normalization_15 (BatchNo (None, 16, 16, 512)  2048        conv2d_15[0][0]                  
__________________________________________________________________________________________________
leaky_re_lu_11 (LeakyReLU)      (None, 16, 16, 512)  0           batch_normalization_11[0][0]     
__________________________________________________________________________________________________
leaky_re_lu_16 (LeakyReLU)      (None, 16, 16, 512)  0           batch_normalization_15[0][0]     
__________________________________________________________________________________________________
conv2d_11 (Conv2D)              (None, 16, 16, 512)  6554112     leaky_re_lu_11[0][0]             
__________________________________________________________________________________________________
conv2d_16 (Conv2D)              (None, 16, 16, 512)  6554112     leaky_re_lu_16[0][0]             
__________________________________________________________________________________________________
batch_normalization_12 (BatchNo (None, 16, 16, 512)  2048        conv2d_11[0][0]                  
__________________________________________________________________________________________________
batch_normalization_16 (BatchNo (None, 16, 16, 512)  2048        conv2d_16[0][0]                  
__________________________________________________________________________________________________
leaky_re_lu_12 (LeakyReLU)      (None, 16, 16, 512)  0           batch_normalization_12[0][0]     
__________________________________________________________________________________________________
leaky_re_lu_17 (LeakyReLU)      (None, 16, 16, 512)  0           batch_normalization_16[0][0]     
__________________________________________________________________________________________________
flatten_2 (Flatten)             (None, 131072)       0           leaky_re_lu_12[0][0]             
__________________________________________________________________________________________________
flatten_3 (Flatten)             (None, 131072)       0           leaky_re_lu_17[0][0]             
__________________________________________________________________________________________________
dense_2 (Dense)                 (None, 200)          26214600    flatten_2[0][0]                  
__________________________________________________________________________________________________
dense_3 (Dense)                 (None, 200)          26214600    flatten_3[0][0]                  
__________________________________________________________________________________________________
leaky_re_lu_18 (LeakyReLU)      (None, 200)          0           dense_2[0][0]                    
__________________________________________________________________________________________________
leaky_re_lu_19 (LeakyReLU)      (None, 200)          0           dense_3[0][0]                    
__________________________________________________________________________________________________
concatenate_3 (Concatenate)     (None, 400)          0           leaky_re_lu_18[0][0]             
                                                                 leaky_re_lu_19[0][0]             
__________________________________________________________________________________________________
dense_4 (Dense)                 (None, 200)          80200       concatenate_3[0][0]              
__________________________________________________________________________________________________
leaky_re_lu_20 (LeakyReLU)      (None, 200)          0           dense_4[0][0]                    
__________________________________________________________________________________________________
dense_5 (Dense)                 (None, 1)            201         leaky_re_lu_20[0][0]             
==================================================================================================
Total params: 74,242,209
Trainable params: 0
Non-trainable params: 74,242,209
__________________________________________________________________________________________________
None
Starting Training:
7351,2.296,2696.104,1.684,14,
7352,13.466,130.747,6.206,16,
…
